…
│ (DiscriminatorModel)                 │                             │                 │
└──────────────────────────────────────┴─────────────────────────────┴─────────────────┘
 Total params: 4,469,444 (17.05 MB)
 Trainable params: 4,469,060 (17.05 MB)
 Non-trainable params: 384 (1.50 KB)
Model: "generator_model"
┏━━━━━━━━━━━━━━━━━━━━━━━━━━━━━━━━━━━━━━┳━━━━━━━━━━━━━━━━━━━━━━━━━━━━━┳━━━━━━━━━━━━━━━━━┓
┃ Layer (type)                         ┃ Output Shape                ┃         Param # ┃
┡━━━━━━━━━━━━━━━━━━━━━━━━━━━━━━━━━━━━━━╇━━━━━━━━━━━━━━━━━━━━━━━━━━━━━╇━━━━━━━━━━━━━━━━━┩
│ reshape (Reshape)                    │ (64, 8, 8, 256)             │               0 │
├──────────────────────────────────────┼─────────────────────────────┼─────────────────┤
│ dense (Dense)                        │ (64, 16384)                 │       2,113,536 │
├──────────────────────────────────────┼─────────────────────────────┼─────────────────┤
│ conv2d_transpose (Conv2DTranspose)   │ (64, 16, 16, 64)            │          65,600 │
├──────────────────────────────────────┼─────────────────────────────┼─────────────────┤
│ conv2d (Conv2D)                      │ (64, 16, 16, 64)            │         102,464 │
├──────────────────────────────────────┼─────────────────────────────┼─────────────────┤
│ batch_normalization                  │ (64, 16, 16, 64)            │             256 │
│ (BatchNormalization)                 │                             │                 │
├──────────────────────────────────────┼─────────────────────────────┼─────────────────┤
│ conv2d_transpose_1 (Conv2DTranspose) │ (64, 32, 32, 32)            │           8,224 │
├──────────────────────────────────────┼─────────────────────────────┼─────────────────┤
│ conv2d_1 (Conv2D)                    │ (64, 32, 32, 32)            │          25,632 │
├──────────────────────────────────────┼─────────────────────────────┼─────────────────┤
│ batch_normalization_1                │ (64, 32, 32, 32)            │             128 │
│ (BatchNormalization)                 │                             │                 │
├──────────────────────────────────────┼─────────────────────────────┼─────────────────┤
│ conv2d_transpose_2 (Conv2DTranspose) │ (64, 64, 64, 16)            │           2,064 │
├──────────────────────────────────────┼─────────────────────────────┼─────────────────┤
│ conv2d_2 (Conv2D)                    │ (64, 64, 64, 3)             │              51 │
└──────────────────────────────────────┴─────────────────────────────┴─────────────────┘
 Total params: 2,317,955 (8.84 MB)
 Trainable params: 2,317,763 (8.84 MB)
 Non-trainable params: 192 (768.00 B)
Model: "discriminator_model"
┏━━━━━━━━━━━━━━━━━━━━━━━━━━━━━━━━━━━━━━┳━━━━━━━━━━━━━━━━━━━━━━━━━━━━━┳━━━━━━━━━━━━━━━━━┓
┃ Layer (type)                         ┃ Output Shape                ┃         Param # ┃
┡━━━━━━━━━━━━━━━━━━━━━━━━━━━━━━━━━━━━━━╇━━━━━━━━━━━━━━━━━━━━━━━━━━━━━╇━━━━━━━━━━━━━━━━━┩
│ conv2d_3 (Conv2D)                    │ (64, 64, 64, 32)            │           2,432 │
├──────────────────────────────────────┼─────────────────────────────┼─────────────────┤
│ batch_normalization_2                │ (64, 64, 64, 32)            │             128 │
│ (BatchNormalization)                 │                             │                 │
├──────────────────────────────────────┼─────────────────────────────┼─────────────────┤
│ average_pooling2d (AveragePooling2D) │ (64, 32, 32, 32)            │               0 │
├──────────────────────────────────────┼─────────────────────────────┼─────────────────┤
│ conv2d_4 (Conv2D)                    │ (64, 32, 32, 64)            │          51,264 │
├──────────────────────────────────────┼─────────────────────────────┼─────────────────┤
│ batch_normalization_3                │ (64, 32, 32, 64)            │             256 │
│ (BatchNormalization)                 │                             │                 │
├──────────────────────────────────────┼─────────────────────────────┼─────────────────┤
│ average_pooling2d_1                  │ (64, 16, 16, 64)            │               0 │
│ (AveragePooling2D)                   │                             │                 │
├──────────────────────────────────────┼─────────────────────────────┼─────────────────┤
│ flatten (Flatten)                    │ (64, 16384)                 │               0 │
├──────────────────────────────────────┼─────────────────────────────┼─────────────────┤
│ dense_1 (Dense)                      │ (64, 128)                   │       2,097,280 │
├──────────────────────────────────────┼─────────────────────────────┼─────────────────┤
│ dense_2 (Dense)                      │ (64, 1)                     │             129 │
└──────────────────────────────────────┴─────────────────────────────┴─────────────────┘
 Total params: 2,151,489 (8.21 MB)
 Trainable params: 2,151,297 (8.21 MB)
 Non-trainable params: 192 (768.00 B)
