…
│ (DiscriminatorModel)                 │                             │                 │
└──────────────────────────────────────┴─────────────────────────────┴─────────────────┘
 Total params: 409,060 (1.56 MB)
 Trainable params: 408,612 (1.56 MB)
 Non-trainable params: 448 (1.75 KB)
Model: "generator_model"
┏━━━━━━━━━━━━━━━━━━━━━━━━━━━━━━━━━━━━━━┳━━━━━━━━━━━━━━━━━━━━━━━━━━━━━┳━━━━━━━━━━━━━━━━━┓
┃ Layer (type)                         ┃ Output Shape                ┃         Param # ┃
┡━━━━━━━━━━━━━━━━━━━━━━━━━━━━━━━━━━━━━━╇━━━━━━━━━━━━━━━━━━━━━━━━━━━━━╇━━━━━━━━━━━━━━━━━┩
│ dense (Dense)                        │ (32, 128)                   │          32,896 │
├──────────────────────────────────────┼─────────────────────────────┼─────────────────┤
│ reshape (Reshape)                    │ (32, 8, 8, 2)               │               0 │
├──────────────────────────────────────┼─────────────────────────────┼─────────────────┤
│ conv2d_transpose (Conv2DTranspose)   │ (32, 16, 16, 128)           │           4,224 │
├──────────────────────────────────────┼─────────────────────────────┼─────────────────┤
│ batch_normalization                  │ (32, 16, 16, 128)           │             512 │
│ (BatchNormalization)                 │                             │                 │
├──────────────────────────────────────┼─────────────────────────────┼─────────────────┤
│ leaky_re_lu (LeakyReLU)              │ (32, 16, 16, 128)           │               0 │
├──────────────────────────────────────┼─────────────────────────────┼─────────────────┤
│ conv2d_transpose_1 (Conv2DTranspose) │ (32, 32, 32, 64)            │         131,136 │
├──────────────────────────────────────┼─────────────────────────────┼─────────────────┤
│ batch_normalization_1                │ (32, 32, 32, 64)            │             256 │
│ (BatchNormalization)                 │                             │                 │
├──────────────────────────────────────┼─────────────────────────────┼─────────────────┤
│ leaky_re_lu_1 (LeakyReLU)            │ (32, 32, 32, 64)            │               0 │
├──────────────────────────────────────┼─────────────────────────────┼─────────────────┤
│ conv2d_transpose_2 (Conv2DTranspose) │ (32, 64, 64, 32)            │          51,232 │
├──────────────────────────────────────┼─────────────────────────────┼─────────────────┤
│ batch_normalization_2                │ (32, 64, 64, 32)            │             128 │
│ (BatchNormalization)                 │                             │                 │
├──────────────────────────────────────┼─────────────────────────────┼─────────────────┤
│ leaky_re_lu_2 (LeakyReLU)            │ (32, 64, 64, 32)            │               0 │
├──────────────────────────────────────┼─────────────────────────────┼─────────────────┤
│ conv2d_transpose_3 (Conv2DTranspose) │ (32, 128, 128, 3)           │           2,403 │
└──────────────────────────────────────┴─────────────────────────────┴─────────────────┘
 Total params: 222,787 (870.26 KB)
 Trainable params: 222,339 (868.51 KB)
 Non-trainable params: 448 (1.75 KB)
Model: "discriminator_model"
┏━━━━━━━━━━━━━━━━━━━━━━━━━━━━━━━━━━━━━━┳━━━━━━━━━━━━━━━━━━━━━━━━━━━━━┳━━━━━━━━━━━━━━━━━┓
┃ Layer (type)                         ┃ Output Shape                ┃         Param # ┃
┡━━━━━━━━━━━━━━━━━━━━━━━━━━━━━━━━━━━━━━╇━━━━━━━━━━━━━━━━━━━━━━━━━━━━━╇━━━━━━━━━━━━━━━━━┩
│ conv2d (Conv2D)                      │ (32, 128, 128, 16)          │           1,216 │
├──────────────────────────────────────┼─────────────────────────────┼─────────────────┤
│ max_pooling2d (MaxPooling2D)         │ (32, 64, 64, 16)            │               0 │
├──────────────────────────────────────┼─────────────────────────────┼─────────────────┤
│ conv2d_1 (Conv2D)                    │ (32, 64, 64, 32)            │          12,832 │
├──────────────────────────────────────┼─────────────────────────────┼─────────────────┤
│ max_pooling2d_1 (MaxPooling2D)       │ (32, 32, 32, 32)            │               0 │
├──────────────────────────────────────┼─────────────────────────────┼─────────────────┤
│ conv2d_2 (Conv2D)                    │ (32, 32, 32, 64)            │          32,832 │
├──────────────────────────────────────┼─────────────────────────────┼─────────────────┤
│ max_pooling2d_2 (MaxPooling2D)       │ (32, 16, 16, 64)            │               0 │
├──────────────────────────────────────┼─────────────────────────────┼─────────────────┤
│ conv2d_3 (Conv2D)                    │ (32, 16, 16, 128)           │         131,200 │
├──────────────────────────────────────┼─────────────────────────────┼─────────────────┤
│ max_pooling2d_3 (MaxPooling2D)       │ (32, 8, 8, 128)             │               0 │
├──────────────────────────────────────┼─────────────────────────────┼─────────────────┤
│ flatten (Flatten)                    │ (32, 8192)                  │               0 │
├──────────────────────────────────────┼─────────────────────────────┼─────────────────┤
│ dense_1 (Dense)                      │ (32, 1)                     │           8,193 │
└──────────────────────────────────────┴─────────────────────────────┴─────────────────┘
 Total params: 186,273 (727.63 KB)
 Trainable params: 186,273 (727.63 KB)
 Non-trainable params: 0 (0.00 B)
